pos_tagging_model.pt (torch, 299244 bytes, 6 tensors)

fc1.weight f4 [128, 500]
0	0x3d8509c8	0.06496006
1	0xbe8f60bb	-0.28003487
2	0x3dea5cef	0.11443507
3	0x3e7eb4dd	0.24873681
4	0xbe1c4805	-0.15261848
5	0x3d5467d6	0.05185684
6	0xbde3ea24	-0.11128643
7	0x3c8130f7	0.015770419
8	0x3dd375fd	0.10325239
9	0x3d58c9a9	0.052926693
10	0xbe0d3662	-0.13790277
11	0x3dde0cc7	0.10842281
12	0x3e97bc07	0.2963564
13	0x3e285a9f	0.16440819
14	0xbea383f6	-0.31936616
15	0x3dc69275	0.09695903
16	0xbeb8a04f	-0.36059806
17	0x3ce42fdb	0.02785485
18	0xbc8dc7a9	-0.01730712
19	0x3d589dd7	0.052884903
20	0xbcfeeec5	-0.031119714
21	0xbb9555d6	-0.0045573516
22	0xbdc4329a	-0.09579964
23	0x3d2166da	0.039404728
24	0xbeb5a1bf	-0.35474965
25	0xbdcf2db7	-0.10116141
26	0xbd3ccb13	-0.046092104
27	0x3c472048	0.012153693
28	0xbe2127fc	-0.15737909
29	0x3de8bf7a	0.11364646
30	0xbccbcdc3	-0.024878388
31	0x3caafac5	0.02087153
32	0xbcefcb2f	-0.02927169
33	0x3ccc270e	0.024920966
34	0x3d2a80fc	0.041626915
35	0xbd8006c4	-0.062512904
36	0xbd9a4185	-0.07532028
37	0x3e04cced	0.12968798
38	0x3cb072bc	0.021539085
39	0x3d172218	0.03689775
40	0x3cf363f8	0.029710755
41	0x3d1ba376	0.037997685
42	0x3d7b20d8	0.06131062
43	0x3e19b260	0.15009451
44	0x3ba55d4c	0.0050465222
45	0xbdd80a40	-0.1054883
46	0x3dada1ae	0.084781036
47	0x3dc782c4	0.097417384
48	0xbe4e1ba5	-0.20127733
49	0xbdf4bf45	-0.11950544
50	0xbddec8f6	-0.10878174
51	0xbdf679c1	-0.120349415
52	0x3e7c1d29	0.24620499
53	0xbe8ca8c8	-0.2747252
54	0x3e1f24bd	0.15541358
55	0xbe09c1ce	-0.13452837
56	0xbd1cf034	-0.038315013
57	0x3e5399d3	0.20664148
58	0xbdfd8706	-0.12379269
59	0x3e2a782c	0.16647404
60	0x3e0f8666	0.14016113
61	0x3e108ea3	0.14116912
62	0xbdeca0b9	-0.11554093
63	0xbcec39fe	-0.028836247
64	0x3e0f9172	0.14020327
65	0xbd9e9b5c	-0.07744476
66	0x3c35e73d	0.011102495
67	0x3d1d4d3e	0.038403742
68	0x3dafc6ba	0.08582826
69	0xbe239ba3	-0.1597734
70	0x3e9db5b1	0.30802682
71	0xbe9349bf	-0.287672
72	0x3af2e83e	0.0018532348
73	0xbe6c441e	-0.2307286
74	0xbd05f736	-0.03270646
75	0xbdd16dda	-0.10226031
76	0xbd32e13f	-0.043671843
77	0xbdc5f489	-0.09665782
78	0xbe60ba75	-0.21946128
79	0xbd465cc4	-0.048428312
80	0xbcda97d4	-0.026683725
81	0x3e20a98a	0.15689674
82	0xbde1cf8d	-0.11025915
83	0xbd7b5735	-0.061362464
84	0xbdd56901	-0.104204185
85	0x3ec46709	0.3835986
86	0x3e4e8dcd	0.2017128
87	0x3d60f1b6	0.054918014
88	0xbdf06409	-0.1173783
89	0xbe030cdc	-0.12797874
90	0xbb40a924	-0.002939769
91	0x3de1c8b1	0.11024607
92	0xbdfc8f9c	-0.12332079
93	0x3ee69bbc	0.4504069
94	0xbbe45872	-0.0069685513
95	0x3c9395d1	0.018015774
96	0xbe5bd8bf	-0.21469401
97	0x3cbb3f17	0.022857232
98	0xbdb9c75e	-0.090712294
99	0x3d46ca4d	0.048532773
100	0x3e45fe9a	0.19335404
101	0xbdf8ba5c	-0.1214492
102	0xbb3a2232	-0.002840173
103	0x3e6d2722	0.23159459
104	0xbe21d864	-0.15805203
105	0x3d8ea254	0.069645554
106	0xbe378b55	-0.17924245
107	0xbdaaba59	-0.08336324
108	0xbd108c31	-0.035289947
109	0xbe28e49e	-0.1649346
110	0x3d06dfea	0.032928385
111	0xbd590181	-0.05297995
112	0x3ed169c4	0.40901005
113	0x3dcee160	0.101015806
114	0x3cc9d52e	0.024637785
115	0x3e1218fa	0.1426734
116	0xbc92e202	-0.017930035
117	0x3d4ae661	0.049536113
118	0xbe36103a	-0.17779627
119	0xbc2e6e7f	-0.0106464615
120	0x3d50a8ce	0.050942235
121	0x3e2734f6	0.16328797
122	0xbe0b9ac6	-0.1363326
123	0xbdb30c5f	-0.08742594
124	0xbe51d91f	-0.20492981
125	0x3e733577	0.23750864
126	0xbe1d51c3	-0.15363221
127	0x3e042e4a	0.12908283
128	0xbd46d40a	-0.04854206
129	0x3dae1b75	0.08501331
130	0x3b321f36	0.0027179248
131	0x3e84a747	0.25908872
132	0x3d1b5ebc	0.037932143
133	0xbc9651ab	-0.01834949
134	0x3d83c32a	0.06433709
135	0xbcc75d37	-0.02433644
136	0xbe53202c	-0.20617741
137	0x3e72a9d5	0.23697598
138	0xbd292141	-0.04129148
139	0x3d45e79d	0.048316587
140	0x3d556009	0.05209354
141	0x3c924ef0	0.017859906
142	0xbdd38ba9	-0.103293724
143	0x3e610389	0.21974005
144	0xbca398f3	-0.019970393
145	0xbe649e66	-0.22326049
146	0xbcbb490f	-0.022861985
147	0xbdfa2975	-0.122149386
148	0xbc99b94f	-0.01876512
149	0xbe7a2b4c	-0.24430579
150	0xbdd0d9c3	-0.10197785
151	0xbd0acd16	-0.03388699
152	0x3e3d56b1	0.18490101
153	0xbe4aa887	-0.1979085
154	0x3df031a0	0.11728215
155	0xbe44a831	-0.19204785
156	0xbe8211a4	-0.25404084
157	0x3ea2054c	0.31644666
158	0x3e22b700	0.15890121
159	0x3e61c3a9	0.22047295
160	0x3dd0610e	0.10174762
161	0xbdd3232a	-0.103094414
162	0xbd55c2a1	-0.052187566
163	0x3e808e8f	0.25108764
164	0x3d7fc183	0.062440407
165	0x3cc72075	0.024307469
166	0xbe88e7e1	-0.2673941
167	0xbd6f2a71	-0.058390085
168	0x3d6aa327	0.0572845
169	0xbe01327d	-0.12616916
170	0xbd1e9b72	-0.038722463
171	0xbd649cf3	-0.05581374
172	0xbd1912e6	-0.03737154
173	0xbe027781	-0.127409
174	0xbb576c76	-0.0032871044
175	0x3d7ac229	0.06122032
176	0x3e5562b3	0.20838432
177	0xbaa874c0	-0.0012852177
178	0x3cde79d6	0.027157705
179	0x3d880e05	0.06643299
180	0xbe88ae1e	-0.2669534
181	0x3dee1fe4	0.116271764
182	0xbdae7ff9	-0.085205026
183	0x3dc6d63f	0.09708833
184	0xbc81a041	-0.015823485
185	0x3e68aecc	0.2272293
186	0xbe1d6fa0	-0.15374613
187	0xbd295143	-0.041337263
188	0x3dd0810e	0.10180865
189	0xbde1d1d0	-0.11026347
190	0x3da266b8	0.07929748
191	0x3e48a987	0.1959592
192	0x3dbe3153	0.092867516
193	0x3ea60fee	0.32434028
194	0x3d4f3c43	0.05059458
195	0xbd9250fb	-0.07144352
196	0xbe1c79b1	-0.15280797
197	0x3d2094e6	0.0392045
198	0x3d46ac65	0.048504252
199	0x3d569189	0.052384887
200	0x3e81b8f2	0.25336415
201	0x3e36036c	0.17774743
202	0x3f15d98d	0.5853508
203	0x3e257d29	0.16161026
204	0xbe8ac963	-0.2710677
205	0xbe336727	-0.17519818
206	0x3ecbf9fd	0.39839163
207	0x3e898257	0.26857254
208	0x3d7a562a	0.06111733
209	0xbea89747	-0.32927915
210	0x3dfa6649	0.122265406
211	0x3ec2cdf7	0.38047764
212	0xbec6e454	-0.38846076
213	0x3e0c4048	0.13696396
214	0x3e44c9eb	0.1921765
215	0xbec89958	-0.39179492
216	0xbefec009	-0.49755886
217	0xbdd591f9	-0.10428233
218	0xbee740d3	-0.45166644
219	0xbd7d944c	-0.061909005
220	0x3e5bee53	0.21477632
221	0xbeef0365	-0.46682277
222	0x3d2ffe4b	0.042967122
223	0x3ea11a59	0.31465414
224	0xbecd2965	-0.40070644
225	0xbf1bffa8	-0.60936975
226	0x3ea67fb2	0.325193
227	0xbd9d41ff	-0.076786034
228	0xbd96111a	-0.073274806
229	0x3d825abe	0.06364964
230	0x3dde8104	0.108644515
231	0xbf5274c5	-0.82209426
232	0x3c7d8f85	0.015476112
233	0xbc12077c	-0.008912917
234	0x3ec22ed0	0.3792634
235	0x3ddca083	0.10772803
236	0x3f039550	0.5139971
237	0xbea229a1	-0.31672385
238	0xbda04090	-0.07824814
239	0xbe1847c9	-0.14871134
240	0xbe6924ad	-0.22767897
241	0xbdade24f	-0.084904306
242	0x3d69d1be	0.05708479
243	0xbe814a4e	-0.25252002
244	0x3eb99e08	0.3625338
245	0xbef735ae	-0.48283142
246	0xbde8c461	-0.11365581
247	0x3dfb3f45	0.12267927
248	0xbe920715	-0.28521028
249	0x3f2aa31c	0.66655135
250	0x3c02db4e	0.007986857
251	0xbd2c4184	-0.042054668
252	0x3e3e9c41	0.18614294
253	0xbe6939c8	-0.22775948
254	0x3dfba87c	0.12287995
255	0x3c9cf1c6	0.019158255

fc1.bias f4 [128]
0	0xbdf63ea3	-0.12023666
1	0xbd39e790	-0.04538685
2	0x3de6781e	0.11253379
3	0x3bf99c02	0.0076174745
4	0x3e45a1bf	0.19299982
5	0xbdf11b19	-0.117727466
6	0x3e24eb36	0.16105351
7	0x3d78300b	0.060592692
8	0x3bfed62e	0.007776997
9	0x3cf8509e	0.030311879
10	0xbd41e138	-0.047333926
11	0xbc64d09b	-0.013965751
12	0x3d88c8dd	0.06678937
13	0xbdcac071	-0.098999865
14	0x3d0511f5	0.03248783
15	0xbce415ce	-0.027842429
16	0x3e341b15	0.17588456
17	0x3ec7546e	0.38931602
18	0xbc96d750	-0.018413216
19	0x3e48d54d	0.19612618
20	0xbe03c8df	-0.12869595
21	0xbe73534f	-0.23762248
22	0xbecde22c	-0.40211618
23	0xbbef742e	-0.007307551
24	0xbc222c32	-0.009898232
25	0x3e3268a1	0.17422725
26	0x3eb7bafe	0.3588485
27	0xbe69a49a	-0.22816697
28	0x3e4d73c6	0.20063695
29	0xbcf34421	-0.029695572
30	0x3b6ea20d	0.0036412508
31	0xbdcbfbf2	-0.09960164
32	0x3d78c8cc	0.06073837
33	0xbc85a4f2	-0.016314004
34	0x3da55ce2	0.080743566
35	0xbb93cc48	-0.004510436
36	0x3d222cdb	0.03959356
37	0xbd36b63e	-0.044607393
38	0x3d4257bf	0.047446962
39	0xbd8dea8b	-0.06929501
40	0x3caa66e7	0.02080102
41	0x3d6bf5a6	0.057607315
42	0x3da9d7cf	0.08293115
43	0xbdfeba5d	-0.1243789
44	0x3cb7f49c	0.022455506
45	0x3d10a512	0.035313673
46	0xbd114763	-0.03546847
47	0xbe85bb0c	-0.26119268
48	0xbc91a97c	-0.017781012
49	0xbe1084b7	-0.14113127
50	0xbce27842	-0.027645234
51	0x3e6cadf1	0.23113228
52	0xbd24654b	-0.040135663
53	0xbcc77ad6	-0.024350565
54	0xbe582207	-0.2110673
55	0xbcc32752	-0.02382246
56	0xba4b49b2	-0.0007754817
57	0xbdfed6ac	-0.12443289
58	0x3dd91b24	0.1060088
59	0xbea846e9	-0.328666
60	0x3daa6204	0.08319476
61	0xbe65cd36	-0.22441563
62	0xbe31944a	-0.17341724
63	0xbe5db2da	-0.21650258
64	0xbb899d89	-0.004199688
65	0xbc911083	-0.017708069
66	0xbe7cb938	-0.2468003
67	0xbd25124a	-0.040300645
68	0x3d085201	0.03328133
69	0xbbe344af	-0.006935678
70	0x3d4c6928	0.049904972
71	0x3e76a5d1	0.24086691
72	0xbd11ce42	-0.035597093
73	0xbe3bc1de	-0.18335673
74	0xbcbfc34e	-0.023408558
75	0xbca6f9fd	-0.020382876
76	0xbc55312e	-0.013012214
77	0xbe655d9b	-0.22398989
78	0xbdb207d4	-0.08692899
79	0xbd0001c0	-0.03125167
80	0xbe8d8e4b	-0.27647623
81	0x3d9ac943	0.07557919
82	0xbc2af883	-0.010435226
83	0xbe07d8e7	-0.13266335
84	0xbe449c12	-0.19200161
85	0xbd381040	-0.044937372
86	0x3cfd76d3	0.030940449
87	0x3d023e07	0.031797435
88	0x3e13b25f	0.14423512
89	0xbd27d512	-0.040974684
90	0x3dc8f7d2	0.09812893
91	0xbedbb29a	-0.429097
92	0xbc011078	-0.007877462
93	0xbd2f1df9	-0.042753194
94	0x3cab741e	0.020929392
95	0x3d8a8393	0.06763377
96	0x3d038535	0.032109458
97	0x3e2b88f0	0.16751456
98	0x3e0fc246	0.14038953
99	0x3cde01d9	0.02710049
100	0x3dae82e1	0.08521057
101	0xbdad2a2b	-0.084553085
102	0xbd7b16cb	-0.061301034
103	0x3e132449	0.1436931
104	0xbc8db287	-0.017297043
105	0xbd001419	-0.031269167
106	0x3bf67785	0.007521572
107	0x3e0c88f6	0.13724121
108	0xbd398dff	-0.045301434
109	0x3c4962c7	0.012291617
110	0x3d33e8bc	0.043923125
111	0xbd113858	-0.035454124
112	0xbe416f0f	-0.18890022
113	0xbce9cc90	-0.028539926
114	0x3dd21cee	0.10259424
115	0x3b2d5148	0.0026446152
116	0x3bf03501	0.0073305373
117	0xbe6cce20	-0.23125505
118	0xbbd1cebf	-0.00640282
119	0xbe1f0ab7	-0.15531431
120	0x3e724b18	0.23661458
121	0xbee2727f	-0.4422798
122	0x3e034042	0.12817481
123	0xbd83b61f	-0.06431221
124	0xbe9d06ef	-0.30669352
125	0xb9d1bfb6	-0.00040006422
126	0xbea88524	-0.32914078
127	0x3db442d6	0.088018104

fc2.weight f4 [70, 128]
0	0x3cdc7423	0.026910847
1	0xbdb7ca40	-0.08974123
2	0xbe0c7abf	-0.13718699
3	0xbcd1ac44	-0.025594838
4	0x3e8feddb	0.28111157
5	0xbe3cff1e	-0.18456694
6	0x3e41b051	0.18914916
7	0x3c629d6d	0.013831479
8	0x3d8a7b39	0.06761784
9	0x3ec61374	0.38686717
10	0xbd4c6b68	-0.049907118
11	0xbe0adfea	-0.13561979
12	0x3d02b1f7	0.031908
13	0x3dfdff3a	0.12402196
14	0x3da0d727	0.07853537
15	0x3e28323d	0.16425414
16	0x3dae2d54	0.085047394
17	0x3db461a0	0.08807683
18	0xbaba994d	-0.0014236361
19	0xbe8184e6	-0.25296706
20	0xbd881838	-0.06645244
21	0xbd7ed2ae	-0.06221264
22	0xbe7e6911	-0.24844767
23	0xbdbe02a1	-0.09277845
24	0xbd415dcb	-0.04720859
25	0xbe65ca91	-0.22440554
26	0x3d92f19e	0.07174991
27	0x3ca39a57	0.019971056
28	0x3e152e43	0.14568429
29	0xbb6868be	-0.0035462822
30	0xbd0eb072	-0.03483624
31	0xbe5394cc	-0.2066223
32	0x3d8cf045	0.06881765
33	0xbe5cd536	-0.21565709
34	0x3dc3511e	0.09536956
35	0x3bd569c7	0.006512854
36	0x3cf093f6	0.029367428
37	0xbd4acb7f	-0.049510475
38	0x3d070512	0.03296382
39	0xbebce404	-0.36892712
40	0x3be88450	0.007095851
41	0x3e2dfc4c	0.16990775
42	0x3eebbec0	0.46043968
43	0x3e048b67	0.12943803
44	0x3d5c8ecc	0.05384712
45	0x3e042d91	0.12908007
46	0xbd70aa0b	-0.058755916
47	0xbe6b5132	-0.22980192
48	0xbd74a44a	-0.05972699
49	0xbe6348f1	-0.22195794
50	0x3e310644	0.17287546
51	0x3e919ed7	0.28441498
52	0xbd749f6e	-0.059722356
53	0x3c6ddd70	0.014518127
54	0x3c9d649c	0.019213013
55	0xbd679047	-0.056534078
56	0x3d4440ea	0.04791347
57	0xbdbbd058	-0.09170598
58	0x3dac6b85	0.08418945
59	0xbea11509	-0.3146136
60	0x3e113773	0.14181308
61	0x3c31e95e	0.010858862
62	0xbc1280ac	-0.008941811
63	0xbd1f5499	-0.038899038
64	0xbc81c2b4	-0.015839912
65	0x3d035655	0.032064755
66	0xbe1e93a6	-0.15486011
67	0xbc9c0104	-0.019043453
68	0xbba7aeb8	-0.0051172636
69	0x3de08c20	0.10964227
70	0xbe90caab	-0.28279623
71	0x3e2be4b8	0.16786468
72	0x3cbbd0bc	0.02292668
73	0x3d2e8c2f	0.04261416
74	0xbd14b7c9	-0.036308084
75	0xbd890d03	-0.06691935
76	0x3d01c369	0.0316805
77	0x3d87cd6a	0.066309765
78	0x3d172203	0.03689767
79	0xbe95b1a4	-0.29237092
80	0x3e67eb24	0.22648293
81	0x3dfb64f0	0.12275112
82	0xbc93dcbc	-0.01804959
83	0xbd25ddb8	-0.04049465
84	0xbce620a3	-0.028091734
85	0xbd91ddc2	-0.07122375
86	0xbe146b6b	-0.14494102
87	0x3e665d46	0.22496518
88	0x3e771123	0.24127631
89	0xbd8e813f	-0.069582455
90	0xbc8198e4	-0.015819974
91	0x3eaca7c1	0.33721736
92	0x3cff7d5a	0.031187702
93	0xbdd53e56	-0.1041228
94	0xbe859f30	-0.26098013
95	0x3e6123ff	0.21986388
96	0xbce8562c	-0.028361402
97	0xbe025c1f	-0.12730454
98	0x3e51f58b	0.20503823
99	0x3b1a22c2	0.0023519252
100	0x3e8963b2	0.26833874
101	0xbe5e3644	-0.21700388
102	0xbe70269f	-0.23452233
103	0x3e654f29	0.22393478
104	0x3ce9e594	0.028551854
105	0xbcbb2024	-0.022842474
106	0x3da4455d	0.080210425
107	0x3e9b03be	0.30276293
108	0x3cc44c09	0.023962038
109	0x3dab7b69	0.08373148
110	0xbe2d4aae	-0.1692302
111	0xbebb0efb	-0.36534867
112	0x3deee3e6	0.11664562
113	0x3d8bf4f1	0.06833828
114	0x3e85684c	0.26056135
115	0x3d4b2612	0.049596854
116	0x3cb84bca	0.022497077
117	0xbdd70bd7	-0.10500305
118	0x3e0b23d3	0.13587885
119	0xbe1260c3	-0.14294724
120	0x3e4f61ff	0.20252226
121	0xbea9a426	-0.33133048
122	0x3d4a3354	0.049365357
123	0x3e68bbd1	0.22727896
124	0xbe955dd6	-0.29173154
125	0xbd1db1f4	-0.038499787
126	0xbe80a702	-0.25127417
127	0x3e0a9271	0.13532425
128	0x3ddae021	0.106872804
129	0x3d026a58	0.0318397
130	0xbded28a3	-0.115800165
131	0xbd4af785	-0.04955246
132	0x3e158936	0.14603123
133	0xbe0886a9	-0.13332619
134	0x3dd4a6f0	0.10383403
135	0xbe68eb50	-0.22746015
136	0x3d082f24	0.03324808
137	0x3e43c6c5	0.19118793
138	0x3db014e5	0.08597735
139	0xbe162f74	-0.1466654
140	0x3da421be	0.08014248
141	0x3df28e1d	0.11843512
142	0x3c111148	0.008854218
143	0x3ebc44b7	0.36771175
144	0xbd926fdb	-0.07150241
145	0xbd799de9	-0.06094161
146	0xbd5947d9	-0.053047035
147	0x3e048c97	0.12944256
148	0xbdb2e798	-0.08735579
149	0xbea46bff	-0.32113644
150	0xbdbf3c6a	-0.09337695
151	0x3d5a45d6	0.053289257
152	0x3d81719b	0.06320497
153	0xbc03db2e	-0.008047862
154	0x3d09d34a	0.033648767
155	0x3d96703f	0.07345628
156	0x3e0a2dcf	0.13494037
157	0xbd80d420	-0.0629046
158	0x3da7bc23	0.08190181
159	0xbcbfca54	-0.023411907
160	0xbd425a1d	-0.04744922
161	0xbeabb4aa	-0.33536273
162	0x3e2f15f1	0.17098214
163	0xbe13b3d2	-0.14424065
164	0xbe07fd08	-0.13280118
165	0xbdbd6c9d	-0.09249232
166	0x3d99c8f6	0.075090334
167	0xbd11e682	-0.03562022
168	0xbd7a6105	-0.06112768
169	0xbd815317	-0.06314676
170	0xbd43940a	-0.047748603
171	0x3ed067f7	0.4070432
172	0x3c9b4f0c	0.01895859
173	0x3d95b61f	0.073101275
174	0xbcbcb51c	-0.023035578
175	0xbe26ca21	-0.16288044
176	0x3d1ad70d	0.037802745
177	0x3d1367f4	0.03598781
178	0x3e392b73	0.18082981
179	0x3e9d200f	0.3068852
180	0xbd63348c	-0.055470034
181	0xbccebeac	-0.025237404
182	0x3db178b1	0.08665598
183	0x3c99959c	0.018748097
184	0x3d5816ca	0.05275611
185	0x3e824648	0.25444245
186	0x3eb86895	0.3601729
187	0xbe34b7e9	-0.17648281
188	0x3ca4dcea	0.020124871
189	0xbdc552a4	-0.09634903
190	0xbd01ee47	-0.03172138
191	0x3d88dbe3	0.06682565
192	0x3cb08950	0.02154985
193	0x3d3f8f16	0.046767317
194	0x3d730b18	0.05933675
195	0x3e541938	0.20712745
196	0xbd4a58a4	-0.04940094
197	0x3debec4b	0.11519679
198	0x3ea00b68	0.31258702
199	0x3e08ffd5	0.13378842
200	0x3d813fa1	0.063109644
201	0x3dfa8411	0.12232221
202	0xbd71875a	-0.058966972
203	0x3ea0b2a4	0.31386292
204	0xbda93fb0	-0.082641006
205	0x3c8e4707	0.017367853
206	0x3e1460a6	0.14489993
207	0xbe3754c6	-0.17903432
208	0x3e7794ec	0.24177903
209	0xbe3bcef2	-0.18340662
210	0xbdad0699	-0.08448524
211	0x3de3c33e	0.11121224
212	0xbe195272	-0.14972857
213	0x3cb1f0c0	0.021721244
214	0xbe2ca0e2	-0.16858247
215	0x3e240448	0.16017258
216	0xbe20e12d	-0.15710898
217	0xbc8c0300	-0.017091274
218	0x3dfc412c	0.12317118
219	0x3d791a9f	0.060816403
220	0x3d66069e	0.056158654
221	0xbc78936b	-0.015171866
222	0xbde3346f	-0.11093985
223	0xbd22fdbf	-0.039792772
224	0x3d4fd6ff	0.050742146
225	0x3dfb604f	0.12274229
226	0x3e1fcf05	0.15606315
227	0x3daf0d02	0.08547403
228	0x3d3afb62	0.045649894
229	0x3c57948b	0.013157974
230	0x3e372fb9	0.17889298
231	0x3e4a4c04	0.1975556
232	0xbd917ff3	-0.071044825
233	0xbce7e915	-0.028309384
234	0x3c8e4218	0.0173655
235	0x3c8f2a8f	0.017476348
236	0x3d75460d	0.05988126
237	0x3d1516ce	0.0363987
238	0xbddb512e	-0.10708843
239	0x3dcadf09	0.09905822
240	0xbe25fd7f	-0.16209982
241	0x3d97343b	0.07383009
242	0x3e955f7a	0.29174405
243	0xbd07a3e4	-0.033115283
244	0xbd930be7	-0.071800046
245	0x3d5200a4	0.051270142
246	0x3e2cc292	0.16871098
247	0xbd5b04b2	-0.053471275
248	0x3c077139	0.0082667405
249	0xbeb07bba	-0.34469396
250	0x3da3d233	0.07999077
251	0x3e569033	0.20953445
252	0xbcb41b59	-0.021985697
253	0xbd8e6c78	-0.069542825
254	0xbde2e97d	-0.110796906
255	0x3cb50128	0.022095278

fc2.bias f4 [70]
0	0x3dec47db	0.11537143
1	0x3e7295e1	0.23689987
2	0x3dcf5e3e	0.10125397
3	0x3dc87c30	0.09789312
4	0x3c058553	0.008149463
5	0xbddd8d04	-0.10817912
6	0xbde7b99d	-0.113147
7	0x3d324193	0.043519568
8	0xbed92c45	-0.42416587
9	0x3e0341fd	0.12818141
10	0xbd2c2f6b	-0.04203741
11	0x3cd6dcad	0.026228273
12	0x3c0174c7	0.007901377
13	0x3d95e57f	0.073191635
14	0x3e487048	0.19574082
15	0xbd51b94e	-0.05120211
16	0xbed53d2f	-0.41648242
17	0xbda2857b	-0.07935616
18	0x3dd3e4aa	0.103463486
19	0x3d903701	0.07041741
20	0xbde869ea	-0.113483265
21	0xbe91a8cc	-0.28449094
22	0x3da8b3b8	0.08237404
23	0x3d28ea82	0.04123927
24	0x3d5b8e81	0.0536027
25	0xbd4a977f	-0.049460884
26	0xbde9722f	-0.11398732
27	0x3e1d46f3	0.15359096
28	0xbd964228	-0.07336837
29	0xbda8cf51	-0.082426675
30	0xbd758969	-0.059945498
31	0x3d7ee2cc	0.06222801
32	0xbd81d536	-0.06339495
33	0xbd949d44	-0.072565585
34	0xbe9cbdda	-0.30613595
35	0xbda9d48d	-0.08292494
36	0xbe33799a	-0.17526856
37	0xbe2aec96	-0.16691813
38	0xbce2d6e8	-0.027690366
39	0x3ce69183	0.028145557
40	0xbdac3030	-0.084076285
41	0x3d3cc506	0.046086334
42	0x3cdc60d5	0.026901642
43	0xbd92465d	-0.07142327
44	0xbe8e44d6	-0.27786893
45	0x3e34fa4d	0.17673607
46	0xbd3ef7e7	-0.046623137
47	0x3e311c9d	0.17296071
48	0xbdc340b0	-0.095338225
49	0x3ccdf13e	0.025139447
50	0x3d265ba2	0.04061473
51	0xbc2b2338	-0.0104454085
52	0xbca3dfe0	-0.020004213
53	0x3d269bcc	0.040675923
54	0xbd256cfc	-0.04038714
55	0xbdb56452	-0.08857025
56	0x3c3cfb08	0.01153446
57	0xbde76b36	-0.11299746
58	0x3e796407	0.24354564
59	0x3ce029af	0.027363626
60	0x3c9638cc	0.01833763
61	0xbe8384bc	-0.25687206
62	0xbd2f487f	-0.042793747
63	0x3d989257	0.07449787
64	0xbdd09eea	-0.101865605
65	0x3cbd6784	0.02312065
66	0xbe4a4a00	-0.19754791
67	0xbdf50d57	-0.11965435
68	0x3d114f64	0.035476103
69	0x3d830e93	0.06399264

fc3.weight f4 [14, 70]
0	0xbea5c8f3	-0.32379875
1	0xbdfebaa2	-0.12437941
2	0x3ed36731	0.41289666
3	0xbec5861f	-0.3857889
4	0xbd1a3840	-0.0376513
5	0x3c300620	0.010743648
6	0x3da08f2c	0.07839808
7	0xbccbdfea	-0.024887044
8	0xbed1737e	-0.40908426
9	0x3e0df53a	0.13863078
10	0xbd8c2128	-0.068422616
11	0xbd65d49f	-0.056110974
12	0xbd96b93d	-0.0735955
13	0x3decd109	0.11563308
14	0x3e1b37ca	0.15158
15	0xbd255a4e	-0.040369324
16	0x3d446f43	0.04795767
17	0xbdc6a0e4	-0.09698656
18	0xbdb1fac6	-0.08690409
19	0xbd7afaec	-0.061274454
20	0x3cfab220	0.030602515
21	0x3ee029de	0.43781942
22	0x3e3874ba	0.18013278
23	0xbe828584	-0.2549249
24	0x3e380928	0.17972243
25	0xbd0485db	-0.032354217
26	0x3e73580d	0.23764057
27	0x3e681e10	0.22667718
28	0x3e09eb6b	0.13468711
29	0xbec28066	-0.37988585
30	0x3d80fd03	0.06298258
31	0xbe21a86c	-0.15786904
32	0xbd94a297	-0.07257574
33	0xbd89fe16	-0.06737916
34	0x3e9adb8e	0.30245632
35	0x3e1f1949	0.1553699
36	0xbd2f3943	-0.04277922
37	0x3eed44fd	0.46341696
38	0xbe0a64f7	-0.13515078
39	0xbcf9b85f	-0.030483423
40	0x3e4b1786	0.19833192
41	0xbf00ccd2	-0.5031253
42	0xbef845c1	-0.48490718
43	0xbe554fd4	-0.20831233
44	0x3e1cc7cc	0.15310591
45	0xbd8fb2aa	-0.07016499
46	0xbd24d3a9	-0.040240917
47	0x3e4a1023	0.19732718
48	0xbebc6cb9	-0.368017
49	0x3cbe79cd	0.023251439
50	0xbc3833e0	-0.011242837
51	0x3e08af53	0.13348131
52	0x3d619b5e	0.05507981
53	0x3e4d5c30	0.20054698
54	0xbeb7c408	-0.35891747
55	0xbeee268d	-0.46513787
56	0xbf054ed4	-0.5207341
57	0x3e54a76c	0.20766991
58	0xbe43468d	-0.19069882
59	0x3f0d988c	0.55310893
60	0x3d808f0b	0.06277283
61	0x3dc986f8	0.09840196
62	0xbed39a5a	-0.41328698
63	0xbd6c2352	-0.05765087
64	0xbdfe0f17	-0.12405222
65	0x3ec2d9e8	0.38056874
66	0x3e1a4c0e	0.15068075
67	0x3d6b1b8c	0.057399318
68	0xbf2e56f7	-0.6810145
69	0x3dbbf5da	0.09177752
70	0x3ec63bfd	0.38717642
71	0x3e843c4c	0.25827253
72	0xbf279dd6	-0.65475214
73	0xbd94b7fe	-0.07261656
74	0xbdbc2f93	-0.091887616
75	0xbdeaf0c4	-0.11471704
76	0xbdca0d45	-0.09865812
77	0xbf258a55	-0.646642
78	0x3e16d909	0.1473123
79	0x3dd28ab1	0.102803595
80	0x3e74a5b1	0.23891331
81	0x3d1297ad	0.03578918
82	0xbdbb1c38	-0.09136242
83	0x3d72b26b	0.059252184
84	0xbec4c4ec	-0.3843149
85	0xbe5a18e4	-0.21298558
86	0xbe81ad1a	-0.2532738
87	0xbd5a883d	-0.053352583
88	0x3ed13ce4	0.40866768
89	0x3eaf2368	0.342067
90	0xbd9aaf07	-0.07552915
91	0x3ecd303f	0.4007587
92	0x3afc7c7a	0.0019263171
93	0x3cbcb226	0.023034167
94	0xbe36c8c2	-0.1785002
95	0xbc2f8be5	-0.010714506
96	0xbdd2b4d2	-0.10288395
97	0xbd274e62	-0.040846236
98	0x3e3ae673	0.18251972
99	0xbe3eab07	-0.18619929
100	0x3d9f7f5b	0.07787963
101	0x3e6a35ca	0.22872081
102	0xbd4ca1b3	-0.049958896
103	0xbd4fce22	-0.050733693
104	0xbf28d3f0	-0.6594839
105	0x3e27e5f0	0.16396308
106	0xbe7f9efc	-0.24962991
107	0xbf1d1cbb	-0.61371964
108	0xbdb7136a	-0.0893925
109	0xbd7b0337	-0.061282363
110	0x3e937dcb	0.2880691
111	0xbd851c59	-0.064995475
112	0xbddb239e	-0.10700153
113	0xbe6809b9	-0.22659959
114	0x3e7129a9	0.23551048
115	0x3cfc56f7	0.030803187
116	0x3da28015	0.07934586
117	0xbe07b064	-0.13250881
118	0x3b5cbb3c	0.0033680936
119	0x3cba5e55	0.02275006
120	0xbd910d5e	-0.07082628
121	0xbed980be	-0.42481035
122	0xbca6c80a	-0.020359058
123	0x3c6e3d26	0.014540946
124	0x3e63e279	0.22254361
125	0xbeee4b56	-0.46541852
126	0x3ec1bf50	0.37841272
127	0xbe9d4fdb	-0.30724987
128	0x3e623411	0.22090174
129	0x3f5a2ad4	0.852216
130	0xbd4153f8	-0.04719922
131	0xbebc4985	-0.3677484
132	0xbf115762	-0.5677396
133	0xbcc12cd3	-0.023580944
134	0xbd902920	-0.07039094
135	0x3bf9a85f	0.0076189484
136	0xbf660e61	-0.8986569
137	0xbde3c89c	-0.111222476
138	0x3d94f199	0.072726436
139	0xbba4da1d	-0.005030884
140	0x3d017803	0.031608593
141	0x3e04d442	0.12971595
142	0xbeedcd82	-0.46445853
143	0xbd369497	-0.0445753
144	0xbe0489b7	-0.12943159
145	0x3d92869b	0.0715458
146	0x3e966fc4	0.29382145
147	0xbdc6f9b8	-0.09715599
148	0xbd391b6f	-0.04519218
149	0xbe04b18c	-0.12958354
150	0x3badb828	0.005301494
151	0xbd72221e	-0.059114568
152	0x3d1f9c6f	0.038967546
153	0xbd9510d1	-0.07278598
154	0x3e1d9174	0.15387517
155	0x3d060f03	0.03272916
156	0x3e80c9d2	0.25153977
157	0xbcda32ac	-0.02663549
158	0xbeb9a59c	-0.36259162
159	0xbeb58b04	-0.35457623
160	0xbe026bdf	-0.12736462
161	0xbee31b0c	-0.44356573
162	0x3c865532	0.016398046
163	0xbf203613	-0.6258251
164	0x3e731b64	0.23740917
165	0x3d847bb9	0.06468911
166	0x3e0a3a06	0.13498697
167	0x3e8da985	0.27668396
168	0x3e00fc00	0.1259613
169	0xbe9a7e03	-0.30174264
170	0x3d0cee85	0.034407157
171	0x3c7ca18a	0.015419373
172	0xbcadd0e4	-0.02121777
173	0x3b37e1a3	0.0028058074
174	0x3ea920f9	0.3303297
175	0x3e5f7cdb	0.21824972
176	0x3e86843a	0.26272756
177	0xbf76c8f7	-0.964004
178	0x3eb8876f	0.36040828
179	0xbdef6b63	-0.11690404
180	0xbe443557	-0.19160973
181	0xbe01be1f	-0.12670182
182	0xbe94b98e	-0.29047817
183	0xbde7b728	-0.11314231
184	0xbefed97c	-0.49775302
185	0x3bb53ad5	0.005530695
186	0xbdb556dd	-0.088544585
187	0xbccad0c7	-0.024757756
188	0xbed98a4f	-0.42488334
189	0xbdfbb3d8	-0.12290162
190	0x3ac6413c	0.0015125643
191	0x3eba4f3e	0.36388582
192	0x3e67e954	0.22647601
193	0x3db48626	0.08814649
194	0x3d8c0d19	0.06838436
195	0xbe76b4a3	-0.24092345
196	0xbeba38ec	-0.36371553
197	0xbea6bc50	-0.32565546
198	0xbded1546	-0.11576323
199	0xbf0b6c67	-0.54462284
200	0xbd8c69ef	-0.06856143
201	0x3ec7f80b	0.3905643
202	0x3d96db27	0.07366019
203	0xbe7b3816	-0.24533114
204	0xbd77341a	-0.060352422
205	0x3cda16ea	0.026622254
206	0x3e656ba2	0.2240434
207	0x3d92dfaf	0.071715705
208	0xbf197bd4	-0.5995457
209	0x3e83c23b	0.25734124
210	0xbe5fa3cd	-0.21839829
211	0xbce6dd39	-0.028181659
212	0x3dff5eb3	0.12469234
213	0x3db476bb	0.088117085
214	0x3d5c1a2b	0.053735893
215	0xbc285769	-0.010274746
216	0xbeda5561	-0.42643264
217	0x3d28478f	0.04108387
218	0x3e34b691	0.17647769
219	0x3e3d727c	0.18500704
220	0x3dad99c6	0.084765956
221	0xbe057660	-0.13033438
222	0xbdef1a1c	-0.11674902
223	0x3dc1e1d1	0.09466899
224	0xbf494b27	-0.786303
225	0x3e812f48	0.25231385
226	0x3e4b95c2	0.19881347
227	0x3d81224e	0.06305371
228	0xbdbb2c08	-0.09139258
229	0x3d9e2529	0.077219315
230	0xbcdc7925	-0.026913235
231	0xbf114b65	-0.5675567
232	0x3e86747b	0.26260743
233	0x3e3a371f	0.1818509
234	0xbdee001c	-0.116211146
235	0xbd3cc3f8	-0.046085328
236	0x3ebd193b	0.36933312
237	0xbf12fa31	-0.5741301
238	0xbd59f7df	-0.053214904
239	0xbca95ee7	-0.020675136
240	0x3da94aba	0.08266206
241	0xbe9a6c32	-0.3016067
242	0xba61ab49	-0.00086085923
243	0xbdb6521b	-0.08902379
244	0x3d9a29f6	0.07527535
245	0x3e6c7c33	0.23094253
246	0x3edf4d9f	0.43613908
247	0x3eda3c0c	0.42623937
248	0x3e096b18	0.1341976
249	0xbdf4b50a	-0.11948593
250	0xbf650b12	-0.89470017
251	0xbd8a0f28	-0.06741172
252	0x3e3fab9d	0.18717809
253	0xbf387a81	-0.72061926
254	0xbe934a9a	-0.28767854
255	0x3d96e3c9	0.07367665

fc3.bias f4 [14]
0	0x3c378f56	0.011203608
1	0x3d97d94d	0.07414494
2	0x3cad7362	0.021173183
3	0xbe210322	-0.15723851
4	0xbc951d60	-0.018202484
5	0x3abae1dc	0.0014257985
6	0x3df56680	0.11982441
7	0x3e302bde	0.17204234
8	0x3e4d8d19	0.20073356
9	0x3e3b3eee	0.18285725
10	0xbc5aa00c	-0.013343822
11	0xbbbe5f34	-0.005809689
12	0x3de5e945	0.11226133
13	0x3ce60a35	0.028081039
